…
     "iopub.execute_input": "2024-05-27T03:28:24.415825Z",
     "iopub.status.busy": "2024-05-27T03:28:24.415494Z",
     "iopub.status.idle": "2024-05-27T03:28:24.884245Z",
     "shell.execute_reply": "2024-05-27T03:28:24.883264Z"
    },
    "papermill": {
     "duration": 0.483189,
     "end_time": "2024-05-27T03:28:24.886569",
     "exception": false,
     "start_time": "2024-05-27T03:28:24.403380",
     "status": "completed"
    },
    "tags": []
   },
   "outputs": [
    {
     "data": {
      "text/plain": [
       "GNN_graph(\n",
       "  (atom_encoder): AtomEncoder(\n",
       "    (atom_embedding_list): ModuleList(\n",
       "      (0): Embedding(119, 200)\n",
       "      (1): Embedding(5, 200)\n",
       "      (2-3): 2 x Embedding(12, 200)\n",
       "      (4): Embedding(10, 200)\n",
       "      (5-6): 2 x Embedding(6, 200)\n",
       "      (7-8): 2 x Embedding(2, 200)\n",
       "    )\n",
       "  )\n",
       "  (mlp): Sequential(\n",
       "    (0): Linear(in_features=200, out_features=200, bias=True)\n",
       "    (1): BatchNorm1d(200, eps=1e-05, momentum=0.1, affine=True, track_running_stats=True)\n",
       "    (2): ReLU()\n",
       "    (3): Linear(in_features=200, out_features=200, bias=True)\n",
       "  )\n",
       "  (linear_pred): Linear(in_features=200, out_features=1, bias=True)\n",
       "  (convs): ModuleList(\n",
       "    (0-4): 5 x GINConv(nn=Sequential(\n",
       "      (0): Linear(in_features=200, out_features=200, bias=True)\n",
       "      (1): BatchNorm1d(200, eps=1e-05, momentum=0.1, affine=True, track_running_stats=True)\n",
       "      (2): ReLU()\n",
       "      (3): Linear(in_features=200, out_features=200, bias=True)\n",
       "    ))\n",
       "  )\n",
       "  (norms): ModuleList(\n",
       "    (0-4): 5 x BatchNorm1d(200, eps=1e-05, momentum=0.1, affine=True, track_running_stats=True)\n",
       "  )\n",
       ")"
      ]
     },
     "execution_count": 11,
     "metadata": {},
     "output_type": "execute_result"
    }
   ],
   "source": [
    "gcn = GNN_graph(num_layers=5, emb_dim=200, drop_ratio=0.5, gnn_type='GCN')\n",
…
